{"format": "graph-model", "generatedBy": "2.2.0", "convertedBy": "TensorFlow.js Converter v2.1.0", "userDefinedMetadata": {"signature": {"inputs": {"discount:0": {"name": "discount:0", "dtype": "DT_FLOAT", "tensorShape": {"dim": [{"size": "1"}]}}, "observation:0": {"name": "observation:0", "dtype": "DT_FLOAT", "tensorShape": {"dim": [{"size": "1"}, {"size": "7"}]}}, "reward:0": {"name": "reward:0", "dtype": "DT_FLOAT", "tensorShape": {"dim": [{"size": "1"}]}}, "step_type:0": {"name": "step_type:0", "dtype": "DT_INT32", "tensorShape": {"dim": [{"size": "1"}]}}}, "outputs": {"Identity:0": {"name": "Identity:0", "dtype": "DT_INT32", "tensorShape": {"dim": [{"size": "1"}]}}}}}, "modelTopology": {"node": [{"name": "discount", "op": "Placeholder", "attr": {"shape": {"shape": {"dim": [{"size": "1"}]}}, "dtype": {"type": "DT_FLOAT"}}}, {"name": "observation", "op": "Placeholder", "attr": {"shape": {"shape": {"dim": [{"size": "1"}, {"size": "7"}]}}, "dtype": {"type": "DT_FLOAT"}}}, {"name": "reward", "op": "Placeholder", "attr": {"shape": {"shape": {"dim": [{"size": "1"}]}}, "dtype": {"type": "DT_FLOAT"}}}, {"name": "step_type", "op": "Placeholder", "attr": {"shape": {"shape": {"dim": [{"size": "1"}]}}, "dtype": {"type": "DT_INT32"}}}, {"name": "Func/StatefulPartitionedCall/input_control_node/_0", "op": "NoOp", "input": ["^discount", "^observation", "^reward", "^step_type"]}, {"name": "StatefulPartitionedCall/StatefulPartitionedCall/StatefulPartitionedCall/QNetwork/EncodingNetwork/flatten/Const", "op": "Const", "input": ["^Func/StatefulPartitionedCall/input_control_node/_0"], "attr": {"value": {"tensor": {"dtype": "DT_INT32", "tensorShape": {"dim": [{"size": "2"}]}}}, "dtype": {"type": "DT_INT32"}}}, {"name": "Func/StatefulPartitionedCall/StatefulPartitionedCall/StatefulPartitionedCall/input/_31", "op": "Const", "input": ["^Func/StatefulPartitionedCall/input_control_node/_0"], "attr": {"value": {"tensor": {"dtype": "DT_FLOAT", "tensorShape": {"dim": [{"size": "7"}, {"size": "64"}]}}}, "dtype": {"type": "DT_FLOAT"}}}, {"name": "Func/StatefulPartitionedCall/StatefulPartitionedCall/StatefulPartitionedCall/input/_32", "op": "Const", "input": ["^Func/StatefulPartitionedCall/input_control_node/_0"], "attr": {"value": {"tensor": {"dtype": "DT_FLOAT", "tensorShape": {"dim": [{"size": "64"}]}}}, "dtype": {"type": "DT_FLOAT"}}}, {"name": "Func/StatefulPartitionedCall/StatefulPartitionedCall/StatefulPartitionedCall/input/_33", "op": "Const", "input": ["^Func/StatefulPartitionedCall/input_control_node/_0"], "attr": {"value": {"tensor": {"dtype": "DT_FLOAT", "tensorShape": {"dim": [{"size": "64"}, {"size": "8"}]}}}, "dtype": {"type": "DT_FLOAT"}}}, {"name": "Func/StatefulPartitionedCall/StatefulPartitionedCall/StatefulPartitionedCall/input/_34", "op": "Const", "input": ["^Func/StatefulPartitionedCall/input_control_node/_0"], "attr": {"value": {"tensor": {"dtype": "DT_FLOAT", "tensorShape": {"dim": [{"size": "8"}]}}}, "dtype": {"type": "DT_FLOAT"}}}, {"name": "Func/StatefulPartitionedCall/StatefulPartitionedCall/StatefulPartitionedCall/input/_35", "op": "Const", "input": ["^Func/StatefulPartitionedCall/input_control_node/_0"], "attr": {"value": {"tensor": {"dtype": "DT_FLOAT", "tensorShape": {"dim": [{"size": "8"}, {"size": "4"}]}}}, "dtype": {"type": "DT_FLOAT"}}}, {"name": "Func/StatefulPartitionedCall/StatefulPartitionedCall/StatefulPartitionedCall/input/_36", "op": "Const", "input": ["^Func/StatefulPartitionedCall/input_control_node/_0"], "attr": {"value": {"tensor": {"dtype": "DT_FLOAT", "tensorShape": {"dim": [{"size": "4"}]}}}, "dtype": {"type": "DT_FLOAT"}}}, {"name": "StatefulPartitionedCall/StatefulPartitionedCall/StatefulPartitionedCall/ShiftedCategorical_1/mode/ArgMax/dimension", "op": "Const", "input": ["^Func/StatefulPartitionedCall/input_control_node/_0"], "attr": {"value": {"tensor": {"dtype": "DT_INT32", "tensorShape": {}}}, "dtype": {"type": "DT_INT32"}}}, {"name": "StatefulPartitionedCall/StatefulPartitionedCall/StatefulPartitionedCall/Deterministic_1/sample/concat", "op": "Const", "input": ["^Func/StatefulPartitionedCall/input_control_node/_0"], "attr": {"value": {"tensor": {"dtype": "DT_INT32", "tensorShape": {"dim": [{"size": "2"}]}}}, "dtype": {"type": "DT_INT32"}}}, {"name": "StatefulPartitionedCall/StatefulPartitionedCall/StatefulPartitionedCall/clip_by_value/Minimum/y", "op": "Const", "input": ["^Func/StatefulPartitionedCall/input_control_node/_0"], "attr": {"value": {"tensor": {"dtype": "DT_INT32", "tensorShape": {}}}, "dtype": {"type": "DT_INT32"}}}, {"name": "StatefulPartitionedCall/StatefulPartitionedCall/StatefulPartitionedCall/add/y", "op": "Const", "input": ["^Func/StatefulPartitionedCall/input_control_node/_0"], "attr": {"value": {"tensor": {"dtype": "DT_INT32", "tensorShape": {}}}, "dtype": {"type": "DT_INT32"}}}, {"name": "StatefulPartitionedCall/StatefulPartitionedCall/StatefulPartitionedCall/QNetwork/EncodingNetwork/flatten/Reshape", "op": "Reshape", "input": ["observation", "StatefulPartitionedCall/StatefulPartitionedCall/StatefulPartitionedCall/QNetwork/EncodingNetwork/flatten/Const"], "attr": {"T": {"type": "DT_FLOAT"}, "Tshape": {"type": "DT_INT32"}}}, {"name": "StatefulPartitionedCall/StatefulPartitionedCall/StatefulPartitionedCall/Deterministic_1/sample/concat_1", "op": "Const", "input": ["^StatefulPartitionedCall/StatefulPartitionedCall/StatefulPartitionedCall/Deterministic_1/sample/concat"], "attr": {"value": {"tensor": {"dtype": "DT_INT32", "tensorShape": {"dim": [{"size": "1"}]}}}, "dtype": {"type": "DT_INT32"}}}, {"name": "StatefulPartitionedCall/StatefulPartitionedCall/StatefulPartitionedCall/QNetwork/EncodingNetwork/dense/Relu", "op": "_FusedMatMul", "input": ["StatefulPartitionedCall/StatefulPartitionedCall/StatefulPartitionedCall/QNetwork/EncodingNetwork/flatten/Reshape", "Func/StatefulPartitionedCall/StatefulPartitionedCall/StatefulPartitionedCall/input/_31", "Func/StatefulPartitionedCall/StatefulPartitionedCall/StatefulPartitionedCall/input/_32"], "device": "/device:CPU:0", "attr": {"transpose_b": {"b": false}, "T": {"type": "DT_FLOAT"}, "num_args": {"i": "1"}, "epsilon": {"f": 0.0}, "fused_ops": {"list": {"s": ["Qmlhc0FkZA==", "UmVsdQ=="]}}, "transpose_a": {"b": false}}}, {"name": "StatefulPartitionedCall/StatefulPartitionedCall/StatefulPartitionedCall/QNetwork/EncodingNetwork/dense_1/Relu", "op": "_FusedMatMul", "input": ["StatefulPartitionedCall/StatefulPartitionedCall/StatefulPartitionedCall/QNetwork/EncodingNetwork/dense/Relu", "Func/StatefulPartitionedCall/StatefulPartitionedCall/StatefulPartitionedCall/input/_33", "Func/StatefulPartitionedCall/StatefulPartitionedCall/StatefulPartitionedCall/input/_34"], "device": "/device:CPU:0", "attr": {"transpose_b": {"b": false}, "T": {"type": "DT_FLOAT"}, "num_args": {"i": "1"}, "epsilon": {"f": 0.0}, "fused_ops": {"list": {"s": ["Qmlhc0FkZA==", "UmVsdQ=="]}}, "transpose_a": {"b": false}}}, {"name": "StatefulPartitionedCall/StatefulPartitionedCall/StatefulPartitionedCall/QNetwork/dense_2/BiasAdd", "op": "_FusedMatMul", "input": ["StatefulPartitionedCall/StatefulPartitionedCall/StatefulPartitionedCall/QNetwork/EncodingNetwork/dense_1/Relu", "Func/StatefulPartitionedCall/StatefulPartitionedCall/StatefulPartitionedCall/input/_35", "Func/StatefulPartitionedCall/StatefulPartitionedCall/StatefulPartitionedCall/input/_36"], "device": "/device:CPU:0", "attr": {"transpose_b": {"b": false}, "T": {"type": "DT_FLOAT"}, "num_args": {"i": "1"}, "epsilon": {"f": 0.0}, "fused_ops": {"list": {"s": ["Qmlhc0FkZA=="]}}, "transpose_a": {"b": false}}}, {"name": "StatefulPartitionedCall/StatefulPartitionedCall/StatefulPartitionedCall/ShiftedCategorical_1/mode/ArgMax", "op": "ArgMax", "input": ["StatefulPartitionedCall/StatefulPartitionedCall/StatefulPartitionedCall/QNetwork/dense_2/BiasAdd", "StatefulPartitionedCall/StatefulPartitionedCall/StatefulPartitionedCall/ShiftedCategorical_1/mode/ArgMax/dimension"], "attr": {"Tidx": {"type": "DT_INT32"}, "T": {"type": "DT_FLOAT"}, "output_type": {"type": "DT_INT64"}}}, {"name": "StatefulPartitionedCall/StatefulPartitionedCall/StatefulPartitionedCall/ShiftedCategorical_1/mode/Cast", "op": "Cast", "input": ["StatefulPartitionedCall/StatefulPartitionedCall/StatefulPartitionedCall/ShiftedCategorical_1/mode/ArgMax"], "attr": {"SrcT": {"type": "DT_INT64"}, "Truncate": {"b": false}, "DstT": {"type": "DT_INT32"}}}, {"name": "StatefulPartitionedCall/StatefulPartitionedCall/StatefulPartitionedCall/Deterministic_1/sample/BroadcastTo", "op": "BroadcastTo", "input": ["StatefulPartitionedCall/StatefulPartitionedCall/StatefulPartitionedCall/ShiftedCategorical_1/mode/Cast", "StatefulPartitionedCall/StatefulPartitionedCall/StatefulPartitionedCall/Deterministic_1/sample/concat", "^StatefulPartitionedCall/StatefulPartitionedCall/StatefulPartitionedCall/add/y"], "attr": {"Tidx": {"type": "DT_INT32"}, "T": {"type": "DT_INT32"}}}, {"name": "StatefulPartitionedCall/StatefulPartitionedCall/StatefulPartitionedCall/Deterministic_1/sample/Reshape", "op": "Reshape", "input": ["StatefulPartitionedCall/StatefulPartitionedCall/StatefulPartitionedCall/Deterministic_1/sample/BroadcastTo", "StatefulPartitionedCall/StatefulPartitionedCall/StatefulPartitionedCall/Deterministic_1/sample/concat_1"], "attr": {"T": {"type": "DT_INT32"}, "Tshape": {"type": "DT_INT32"}}}, {"name": "StatefulPartitionedCall/StatefulPartitionedCall/StatefulPartitionedCall/clip_by_value/Minimum", "op": "Minimum", "input": ["StatefulPartitionedCall/StatefulPartitionedCall/StatefulPartitionedCall/Deterministic_1/sample/Reshape", "StatefulPartitionedCall/StatefulPartitionedCall/StatefulPartitionedCall/clip_by_value/Minimum/y"], "attr": {"T": {"type": "DT_INT32"}}}, {"name": "StatefulPartitionedCall/StatefulPartitionedCall/StatefulPartitionedCall/clip_by_value", "op": "Maximum", "input": ["StatefulPartitionedCall/StatefulPartitionedCall/StatefulPartitionedCall/clip_by_value/Minimum", "StatefulPartitionedCall/StatefulPartitionedCall/StatefulPartitionedCall/add/y"], "attr": {"T": {"type": "DT_INT32"}}}, {"name": "Identity", "op": "Identity", "input": ["StatefulPartitionedCall/StatefulPartitionedCall/StatefulPartitionedCall/clip_by_value"], "attr": {"T": {"type": "DT_INT32"}}}], "library": {}, "versions": {"producer": 175}}, "weightsManifest": [{"paths": ["group1-shard1of1.bin"], "weights": [{"name": "StatefulPartitionedCall/StatefulPartitionedCall/StatefulPartitionedCall/QNetwork/EncodingNetwork/flatten/Const", "shape": [2], "dtype": "int32"}, {"name": "Func/StatefulPartitionedCall/StatefulPartitionedCall/StatefulPartitionedCall/input/_31", "shape": [7, 64], "dtype": "float32"}, {"name": "Func/StatefulPartitionedCall/StatefulPartitionedCall/StatefulPartitionedCall/input/_32", "shape": [64], "dtype": "float32"}, {"name": "Func/StatefulPartitionedCall/StatefulPartitionedCall/StatefulPartitionedCall/input/_33", "shape": [64, 8], "dtype": "float32"}, {"name": "Func/StatefulPartitionedCall/StatefulPartitionedCall/StatefulPartitionedCall/input/_34", "shape": [8], "dtype": "float32"}, {"name": "Func/StatefulPartitionedCall/StatefulPartitionedCall/StatefulPartitionedCall/input/_35", "shape": [8, 4], "dtype": "float32"}, {"name": "Func/StatefulPartitionedCall/StatefulPartitionedCall/StatefulPartitionedCall/input/_36", "shape": [4], "dtype": "float32"}, {"name": "StatefulPartitionedCall/StatefulPartitionedCall/StatefulPartitionedCall/ShiftedCategorical_1/mode/ArgMax/dimension", "shape": [], "dtype": "int32"}, {"name": "StatefulPartitionedCall/StatefulPartitionedCall/StatefulPartitionedCall/Deterministic_1/sample/concat", "shape": [2], "dtype": "int32"}, {"name": "StatefulPartitionedCall/StatefulPartitionedCall/StatefulPartitionedCall/clip_by_value/Minimum/y", "shape": [], "dtype": "int32"}, {"name": "StatefulPartitionedCall/StatefulPartitionedCall/StatefulPartitionedCall/add/y", "shape": [], "dtype": "int32"}, {"name": "StatefulPartitionedCall/StatefulPartitionedCall/StatefulPartitionedCall/Deterministic_1/sample/concat_1", "shape": [1], "dtype": "int32"}]}]}